Cosine_Embedding_Loss_model.pth (torch, 450989 bytes, 20 tensors)

encoder.features.0.weight f4 [32, 3, 3, 3]
00000000: 473e b83e c3ba b33e edf0 333e 1191 bd3e
00000010: b821 1d3e d410 803e bbda ef3d 09ce a73e
00000020: 44b1 ca3e 896c 30be 1d2e e93d ff56 46bc
00000030: 3385 023e 0929 e9ba e508 5d3d 9fee 0dbd
00000040: fb49 fc3d 4d08 1dbc 56d3 cdbd f662 733c
00000050: ef90 fabd 8744 53bd ce22 f5bd e15d a43d
00000060: 34e2 f1bd 83f9 9bbd bba8 68bd 5ffb 8ebd
00000070: df1d ab3d 22d3 fabd 4ae9 7c3e d013 9dbd
00000080: 6744 623e 1e2e 333e bb62 9a3d 7a9b 713e
00000090: ffd1 263e 3f63 9e3e 5186 1c3e 2e68 fb3d
000000a0: a45c 743e ce00 c43d d7fa 7b3e c789 a53e
000000b0: 5cf0 663e 2885 4bbd 1783 0e3e 0085 803d
000000c0: 5de1 fa3d b96f cebd 982c 3abe 75c1 7c3c
000000d0: 6780 91bd 56ee 683e 733f 243e 57c3 363e
000000e0: c992 0d3e cc01 8d3d 60c2 5c3e 74a5 c9bd
000000f0: cd68 c63d f8e0 41bd 7c17 e23d 565e 1abd
00000100: 89db 9b3d c6fe 3bbd c379 343e ff28 e0bd
00000110: 4ece 0bbe c8f4 c0bd fcdb 413e 8cff 563d
00000120: e810 e4bc b898 bfbe 7323 dfbe ded5 e7be
00000130: 9e1d e2be ce65 8bbe d383 e1bc 74e4 b53d
00000140: 0b95 5dbe ad19 9fbd 4c17 053e 35ff 46bd
00000150: 9c72 273e afba 5abc daa0 1a3e 0d1f f1bd
00000160: 802a 95bd 1e69 ae3d 250b 6b3d 6ec1 2ebd
00000170: 7454 023e 30c3 1d3e a7fb 01be 2cc8 acbd
00000180: c883 573e 1013 26bd d9c2 34bd f6a5 16bf
00000190: dafb 10bf 13a6 9abe 2fcc a4be deb4 f0be
000001a0: 00df 85be db7b f8be 3602 12bf 3573 f0be
000001b0: e486 0dbf 099e acbe 9fb6 3b3e ab3e 53bd
000001c0: 0a9d 8b3d 0e65 22bd 7344 dfbe 4bb4 87be
000001d0: 6574 803c 9456 40be ce5c ffbc d806 d83c
000001e0: 9fd2 513d 811d 343d fa85 3b3e f5ce 26be
000001f0: d843 d9bd 326a 423c 662e 00be 8b81 1fbe
00000200: b85d 553e 4a2a a4bc 3908 683e 0aa8 203e
00000210: aca7 61be 652e e23d 7514 0cbd b61b 9bbe
00000220: 0cb7 abbe acb2 bdbe 69fd 14bc a67c 31bd
00000230: 5ecb 763d 9a99 6ebe 1430 ab3d ca79 68be
00000240: 19e2 3ebd 4157 653d 593e ea3d 0048 593e
00000250: 8a5b 893e 1241 81bd 24a9 df3d 5cd6 87bc
00000260: 9d81 023d 54ae 5bbe d722 043e 715a 50be
00000270: b19c 073e d46a 053e c93e d13d 14df 9bbd
00000280: 452e 513e 405f 253d 0a94 423d 4561 96be
00000290: 38c6 253d a257 19be bd14 fdbe 8506 24be
000002a0: 1e0b 4fbe 5a35 23bf 943d 01bf b9ec be3d
000002b0: 9775 313e 81cf 3c3d faf5 90bc 9087 c0bc
000002c0: 3496 a9bd 55d0 0c3e 5d73 313e 0081 05be
000002d0: 8cc3 9c3d 0a2a ca3d 6a9e 843d 91f4 70bd
000002e0: 5704 a63d fba5 c63d 4f78 1e3d db99 a9bd
000002f0: 5ab8 8bbd 93a0 173e 4183 ddbc 2906 6dbe
00000300: d69d 833e e7fb 893e c81b 0ebe ded0 19bd
00000310: 5015 8fbc 2780 3abe f881 073e 83d4 3e3d
00000320: c110 94be 7293 4c3d 15b3 783e ac3b a43c
00000330: a7a3 4a3d baa3 c1bd a60f 46be 2a8b 42be
00000340: 5c83 b8bd e237 403d a791 b03d 4a75 e43d
00000350: 6d74 1cbe 0dae a9bd f2c4 723d 3594 823e
00000360: 0248 883d ed57 51bd 684a d43d 850f d6bd
00000370: e75e 35be 4089 df3d 8a37 d0bd fe95 4fbd
00000380: ece0 3abe ae96 263e 11f1 233e c107 ca3d
00000390: 653c fdbd 69cd 45be 98a6 18be 9abf 353e
000003a0: 1684 fb3d 43c8 4c3e aad9 1a3e 5c1e 043d
000003b0: dc5e 553d 9c83 0dbf cd36 1bbf 22ce 09bf
000003c0: 43ee 2dbe 5ebf b0be 05cb 4fbe 16ab 9bbe
000003d0: becf acbe d70c f4be f0d9 92be bfec 20bd
000003e0: 7c9f 48be 65ad 5b3d 88eb 1cbe e3a3 94be
000003f0: e0ac 85bc 7311 d3bd 8b5e 97bd 349d 12be
0.35985014 0.35103425 0.17572375 0.3702474 0.15344894 0.2501284 0.117116414 0.3277438
0.39588368 -0.17228903 0.113857485 -0.012105702 0.12746124 -0.0017788719 0.05396356 -0.034651395
0.12318798 -0.009584499 -0.10050075 0.014855137 -0.12234675 -0.051579025 -0.11969529 0.080257185
-0.11810723 -0.0761595 -0.05680154 -0.06981539 0.08355307 -0.12247302 0.24698368 -0.076697946
0.22096406 0.17498061 0.075383626 0.23594466 0.16291045 0.30935094 0.15285613 0.1227573
0.23863465 0.09570466 0.24607407 0.32331678 0.22552627 -0.049687535 0.13917194 0.06275368
0.12250016 -0.10079903 -0.18181074 0.015426983 -0.07104569 0.22747168 0.16039829 0.17847954
0.13825525 0.06885108 0.21558523 -0.09846011 0.09687958 -0.047333688 0.110396355 -0.037687622
0.076102324 -0.045897268 0.17624573 -0.109453194 -0.13652918 -0.09421688 0.18931574 0.052489802
-0.027840093 -0.37421203 -0.43581733 -0.45280355 -0.4416322 -0.27226108 -0.027528679 0.088814646
-0.21638887 -0.07768569 0.12997168 -0.04858323 0.16352314 -0.013350173 0.15100423 -0.117735006
-0.07283497 0.08516143 0.057383675 -0.042664938 0.12727529 0.1540649 -0.12693654 -0.08436617
0.21046364 -0.040545523 -0.044131134 -0.58846986 -0.56634295 -0.3020483 -0.3218703 -0.4701299
-0.26146698 -0.48531994 -0.57034624 -0.46962896 -0.5528395 -0.3371432 0.18331383 -0.051573437
0.06817062 -0.039647155 -0.4360691 -0.2650474 0.015680501 -0.18783027 -0.031172182 0.02637045
0.051226255 0.04397345 0.18312827 -0.16289885 -0.10608643 0.011866139 -0.125177 -0.1557676
0.20836532 -0.020039696 0.22659387 0.15689102 -0.22036618 0.11044005 -0.034199197 -0.3029458
-0.3353809 -0.37050378 -0.009093621 -0.043331765 0.06025254 -0.23300782 0.083587795 -0.22702709
-0.046602342 0.055991415 0.11437673 0.21218872 0.2682765 -0.06311239 0.10920933 -0.016581707
0.03186189 -0.2145322 0.12903915 -0.20347 0.13243367 0.13029033 0.102170534 -0.07610908
0.20427807 0.04037404 0.047504462 -0.29371086 0.04047224 -0.14974836 -0.49429885 -0.16018112
-0.20219085 -0.63753283 -0.50484586 0.09322495 0.17330013 0.04609633 -0.017695416 -0.023502141
-0.08280602 0.13751347 0.17329164 -0.13037491 0.07654485 0.098712996 0.064755276 -0.058826987
0.081062965 0.09699627 0.038688954 -0.08281299 -0.06822272 0.14807348 -0.027040126 -0.23146881
0.25706357 0.2695 -0.13877785 -0.037552707 -0.017466217 -0.18212949 0.13233173 0.046589386
-0.28919032 0.049945302 0.24287064 0.020047985 0.049472477 -0.094550565 -0.19341907 -0.189984
-0.0900943 0.046928294 0.08621531 0.111551836 -0.15278788 -0.08285151 0.059269853 0.25503698
0.066543594 -0.051109243 0.10365754 -0.10452179 -0.17711984 0.1091485 -0.10166843 -0.050680153
-0.18249863 0.16268417 0.16009928 0.0986476 -0.12365035 -0.19316639 -0.149073 0.17748871
0.12281053 0.19998269 0.15122095 0.032255515 0.052092418 -0.55278945 -0.60630494 -0.5383016
-0.16985421 -0.34521002 -0.2029229 -0.30403966 -0.33752245 -0.47666046 -0.28681898 -0.03928828
-0.19592088 0.05363216 -0.15324223 -0.29031286 -0.016317785 -0.103060625 -0.073910795 -0.1431778

encoder.features.0.bias f4 [32]
00000000: 5253 efbd b76d 773e 26fa afbd 7ab0 593d
00000010: d3c8 52bd 4e87 efbd 864f 3fbe bbc4 223e
00000020: 9a2a 683e 8ae1 1c3d dc76 10be 47c9 0a3e
00000030: 4f66 613e 643e bc3d 9128 3a3e a6bd 9b3b
00000040: 1c84 7e3c 8934 053d 6f08 843c cf03 8f3c
00000050: 2917 053e 768e 543d 6c72 373e dfee 89be
00000060: 5094 45be d948 153e f83a 753e 1239 a33d
00000070: a7bf 403d 26ed fabc fbf7 173e 948d 3f3e
-0.11685814 0.24162947 -0.08592634 0.053146817 -0.051461052 -0.11695729 -0.1868268 0.15895359
0.22672501 0.03830103 -0.14107841 0.13553344 0.22011684 0.091915876 0.18179537 0.0047528325
0.015534427 0.032520805 0.016117303 0.01745787 0.12997116 0.051893674 0.17914742 -0.26940057
-0.19294858 0.1457857 0.23948276 0.0796987 0.047057774 -0.03063066 0.14840691 0.18706352

encoder.features.1.weight f4 [32]
00000000: 1297 483f ace0 423f 8ccd 7f3f 6458 913f
00000010: 1587 4d3f b4ba 693f 048c 3d3f db29 8d3f
00000020: 000e 933f d4cd 463f ad23 823f 7ddb 893f
00000030: a04b 3b3f 6bd8 833f daa8 9c3f 623f 503f
00000040: ce63 443f fda8 6b3f b186 7a3f 5cf4 683f
00000050: f224 3a3f e8fa 7b3f e937 603f 033a 493f
00000060: 33d4 643f 1255 9a3f b6a0 8c3f 57e1 673f
00000070: 66a9 913f f3a6 a53f ad1d 593f 146d 803f
0.78355515 0.7612407 0.99923015 1.13551 0.80284244 0.9130051 0.7404177 1.1028398
1.1488647 0.7765782 1.0167137 1.0770108 0.7316227 1.030042 1.223903 0.81346714
0.7671479 0.9205473 0.9786177 0.9099786 0.72712624 0.9842973 0.8758531 0.78604144
0.8938629 1.2057211 1.0986545 0.90578216 1.1379821 1.2941574 0.84810907 1.0033288

encoder.features.1.bias f4 [32]
00000000: 5376 3abd 8e7c 92be 8914 28be fed9 00be
00000010: 7403 47be ede4 9cbe 6f3d 7abe b051 1abf
00000020: 3106 6bbe 26bc cabe 73a7 bcbd a761 3abd
00000030: ecd2 a8be 20b7 47be 1a3b b8be 4008 77be
00000040: 27c0 c8be be92 c0be 0115 1abe 439c 65be
00000050: 23f6 febd f109 c9be 736b d8be 76f6 82be
00000060: 6ccb cebe 28ef 4bbe 1f24 e3be 7fba a6be
00000070: 67c9 03bf df44 4dbe fe00 c7be 8da2 6b3d
-0.045523 -0.28610653 -0.16414084 -0.12583157 -0.19434911 -0.30643407 -0.24437498 -0.60280895
-0.2295158 -0.3959667 -0.09211626 -0.045503285 -0.3297342 -0.1950345 -0.3598259 -0.24124241
-0.392091 -0.37611955 -0.15047075 -0.2242289 -0.124492906 -0.39265397 -0.42269477 -0.2557866
-0.40389574 -0.1991545 -0.44363496 -0.3256416 -0.5147919 -0.20045803 -0.38867944 0.057528067

encoder.features.1.running_mean f4 [32]
00000000: c5fe f8be f05d 6bbe d843 273f 0f5c d13f
00000010: 44c2 4c3e 3a71 b9bc 9eef 4f3e fd55 e43d
00000020: 1a5a 9d3f 4005 233f efb5 073f 7b75 66bd
00000030: 6fc8 8a3f 8287 24be 6b97 333e 3a0a 48be
00000040: 15a9 c9bd 5deb 283f b0d8 7a3c dc8e 22bd
00000050: 013c c1be aea5 803e 3b4a f23e cd28 bb3e
00000060: b939 19be d8ec 03be 13cb 413e 3886 11be
00000070: 5764 5d3d ec93 153d 4849 813e a23d 083e
-0.48631874 -0.22985053 0.65337896 1.6356219 0.19995981 -0.022636998 0.2030625 0.111492135
1.2293122 0.63679886 0.53011984 -0.05626438 1.0842417 -0.16067317 0.1753823 -0.19535151
-0.09846703 0.65984136 0.015310451 -0.039687023 -0.37741092 0.25126404 0.47322258 0.36554566
-0.14963426 -0.12883317 0.18925123 -0.14211357 0.05405077 0.036518022 0.25251222 0.13304761

encoder.features.1.running_var f4 [32]
00000000: 3615 a93f 34ab d43f cbce 393f 1686 4140
00000010: 9e61 103f 2b70 533e 598b 7b3f c319 893d
00000020: f1aa 9f3f 24d3 843f 5470 353f c736 a83e
00000030: 39c1 0040 812e 683e 905b ab3d 5d83 b53e
00000040: 7bca 673e 7aa5 353f 006e d43e bb82 053e
00000050: 4ba9 9f3f b8b7 c13e c5fc ba3e e152 d73f
00000060: 8e2e bb3d 03ef 4d3e 2a77 213e 6614 093f
00000070: bff2 da3d bec0 0e3e 661a 953e ba2f a03e
1.3209598 1.6614747 0.72581166 3.023809 0.5639895 0.20648257 0.982595 0.06694367
1.2474042 1.0376935 0.70874524 0.32854292 2.0117934 0.2267399 0.083670735 0.35451785
0.22635834 0.7095562 0.41490173 0.13038151 1.2473539 0.3783548 0.36520973 1.6822168
0.09139739 0.20110707 0.15768114 0.5354675 0.106908314 0.13940713 0.29121703 0.31286412

encoder.features.3.weight f4 [64, 32, 3, 3]
00000000: 4683 a3bd b085 00be 9d23 a3bd 02bf 86bd
00000010: 843a 06bc 53e6 143c 0df0 5e3c bf87 60bd
00000020: 5dec 5cbb ac69 2cbd 3d59 f0bd 80fb 14bd
00000030: 55b2 f7bc fc4b 1dbd a3be afbc 2542 533c
00000040: fe28 3e3c 28bc 9c3c a72a 5e3d fcd0 60bd
00000050: acfd 9dbd 9d1b 0e3e 2dc5 473d 2b2a 933c
00000060: fd3b 393d 3066 973d b0e2 be3c 2722 903d
00000070: 217b 0a3e 2495 d23c 25d4 bf3d d2ed 203e
00000080: bcd7 b63d cf10 8e3d e7b8 1a3e 4632 b43d
00000090: fe07 debd 56ac b0bd 836e 8dbd 85b5 b7bc
000000a0: ee5a bebc c7a9 463c 1bdb 34bd 8ccb 52bd
000000b0: 25f3 7ebd f645 eabc fbe4 3abd 5a25 fbbc
000000c0: 1888 aebd 1a49 0dbd 1338 a6bd 40cc c5bc
000000d0: 8abd 20bd 7e63 5c3d 4c1a 93bc 63f3 9bbc
000000e0: 7e1f 293d a7d9 083e 504e fc3d 9358 043d
000000f0: 4434 98bd ed47 5cbd e57e b83c 59f0 dc3d
00000100: 2398 b13b 16ac 1fbc 74b5 2f3d 7614 133d
00000110: 0b8a 8ebd 2f40 e03d 0a6d 613d 2b3c b1bc
00000120: 6359 e13d 8430 db3d e4ab 0f3e 4144 c13e
00000130: e9ff bd3e aed0 ad3e 8420 4c3e 7d36 0e3e
00000140: 8a0f 073e dc32 853a a712 013c 2474 f53c
00000150: debe bd3d 870d 413d a17d c53d 956a 683e
00000160: 207a bd3d 1848 0c3e a7e6 c3bd d9bf 8fbc
00000170: 8b61 1c3b 6d63 13bc 5e8b 113c 113e 393d
00000180: 39aa 25bd b52e 7ebd 0129 263d 6660 27be
00000190: dbe8 debd 8b90 81bd fda0 b4bc 05c4 35bd
000001a0: 2ab0 5b3d 567f 9cbd ce7a 82bd a1ba b1bb
000001b0: 9e8a cfbd bcea bcbd 9330 aebd d502 673c
000001c0: 5b19 e33b 3acc f63b a109 fc3d 1be0 3f3d
000001d0: 86ed 713d 0f81 91bc f0cb d0bb 552c 923c
000001e0: 2ad8 23bd 2140 b23c 1588 323d b76c 16be
000001f0: eee0 59be cec4 23be 9eeb abbe f50e 35be
00000200: 5ee3 88bd f36d 32be 53e4 febc 3eb7 a3bd
00000210: 479d 8bbd 5e86 83bd 9d8f 2cbd a484 d6bd
00000220: 6120 d8bd c66a 01be 0499 11bd d326 c33c
00000230: 50b7 6c3c f620 cdbd e601 58bd 28ce 56bd
00000240: 7a7e b0bd e7d9 a43c ae22 68bd 165e 58bd
00000250: 2862 adbd 36d9 d1bd 1c68 55bd 5fcf 86bd
00000260: fea6 b2bd 1a13 023e 2f34 313e a2e9 c73d
00000270: 6eac 0d3e 2c08 fd3d 4b0a 573e c382 3bbd
00000280: 0df1 5abd b758 19bd 3cc7 bcbd 85e5 10be
00000290: 05d4 98bd 56d4 8abc fa42 3bbc c902 533d
000002a0: 5f04 07be c99c 67bd 83a8 7bbd 5869 103e
000002b0: 7424 603e bf87 4f3e a7b7 323e cf57 903e
000002c0: ab06 613e 3de3 d23d 5abf d73d cedc 013e
000002d0: b4d6 1dbe 0bf7 f2bd 7016 cbbd 966f 53bd
000002e0: b157 11bd 1b7a 223d bb49 babd 99d4 d3bd
000002f0: 3951 bdbb b193 dd3d 9cdb 0d3e 57e5 0d3e
00000300: 7520 1d3e ed1b fa3d 87df 403e 0bab 9c3e
00000310: 0986 3d3e e748 733e a82f 9339 b54a e2bc
00000320: 56b4 7cbc 20cc 003e ad17 073e cd9c 1e3e
00000330: 6f68 253e 91ba 5b3e d29e 063e 0ca2 b83c
00000340: 3e4f 90bd dbe2 99bc 405f 0d3d 5985 ff3c
00000350: 1e06 a9bb 674d fb3b caa4 0bbd 0cf2 7cbd
00000360: 662c 80bd 0400 803d ca64 8c3d eb42 4c3e
00000370: 9bbf 3b3e f09a 8a3e 6d83 833e 6bd0 253e
00000380: 01b5 c53d 8e21 8dbe b36a 02be 5a06 36bd
00000390: adba 9e3d 8f01 2a3d a468 6c3e 4ed6 0f3d
000003a0: 8574 7e3d 819c d33d 86f5 85bc 55b5 ae3d
000003b0: 887b b33d 1e73 b33d 8c72 6a3e 4f24 343e
000003c0: 5d43 1bbe a5b9 3cbc 05a0 99bd bb9a 6dbe
000003d0: b69d 36be 842f 27be 678a ccbd 62e0 21be
000003e0: 6790 5ebd d6ad a7bd bbeb 97bd 0da9 73bd
000003f0: f0bf 1f3e f628 073e 533d bf3d e88a 1e3e
-0.07984023 -0.12550998 -0.07965777 -0.065794006 -0.008192662 0.009088117 0.013607037 -0.054816958
-0.003371022 -0.042092964 -0.11735771 -0.03637266 -0.030236403 -0.038402542 -0.021453207 0.012894188
0.011606453 0.019132689 0.054239895 -0.054886803 -0.077144 0.13877721 0.048772026 0.017964443
0.045223225 0.073925376 0.023301452 0.07037764 0.13523532 0.025705881 0.09366635 0.15715721
0.08927867 0.069368 0.15109597 0.087986514 -0.10841368 -0.086266205 -0.06905844 -0.022425422
-0.023236718 0.012125439 -0.044154268 -0.05146365 -0.0622436 -0.028597813 -0.04562853 -0.030657459
-0.085220516 -0.034493543 -0.08116164 -0.024145246 -0.03924326 0.05380582 -0.017956875 -0.019036954
0.0412898 0.13364278 0.123196244 0.032311033 -0.07431844 -0.05377953 0.022521446 0.1078803
0.0054197474 -0.009745618 0.042897657 0.035908185 -0.06959923 0.10949742 0.05503563 -0.021635136
0.11003377 0.10702613 0.14030415 0.37747386 0.37109306 0.33948272 0.19934279 0.13887973
0.13189521 0.0010162252 0.007877982 0.029962607 0.09264921 0.04713204 0.096431024 0.22696908
0.09251809 0.13699377 -0.09565478 -0.017547535 0.002386185 -0.008995873 0.008883325 0.045225207
-0.04044554 -0.062056262 0.040566448 -0.16345367 -0.108842574 -0.063263975 -0.022049421 -0.044376392
0.0536348 -0.07641475 -0.063710794 -0.005423859 -0.10133861 -0.092244595 -0.085053585 0.014099796
0.006930513 0.00753167 0.12306524 0.046844583 0.05906441 -0.017761735 -0.0063719675 0.017843405
-0.040001072 0.021759095 0.04358681 -0.14689909 -0.2127721 -0.15993044 -0.335782 -0.17681487
-0.06683992 -0.17424755 -0.031114733 -0.07993935 -0.06817108 -0.06422113 -0.042129148 -0.10474518
-0.10553051 -0.12638387 -0.035546318 0.023822224 0.014448002 -0.100160524 -0.052736185 -0.0524427
-0.086178735 0.020123435 -0.056673698 -0.052824102 -0.084659874 -0.10246508 -0.05210124 -0.06582522
-0.087232575 0.12702599 0.17305063 0.09761359 0.13835308 0.12355074 0.2100002 -0.045779
-0.05345254 -0.03743812 -0.092176884 -0.14150055 -0.074623145 -0.016946953 -0.011429543 0.051516328
-0.13185261 -0.056546006 -0.061440002 0.14102685 0.21888906 0.20266627 0.1745287 0.28191993
0.219752 0.102972485 0.10534544 0.12681887 -0.15413934 -0.11863526 -0.09916389 -0.05162009
-0.03548402 0.03966723 -0.09096094 -0.10343284 -0.0057775048 0.108191855 0.13853306 0.13857017
0.15344413 0.12212358 0.18835269 0.30599245 0.18508162 0.23758279 0.00028073532 -0.027623514
-0.015423855 0.12577868 0.13192625 0.15489502 0.1615312 0.21457888 0.13146523 0.022538207
-0.07046364 -0.01878493 0.034514666 0.031191515 -0.0051582 0.007669139 -0.034092702 -0.06175427
-0.06258468 0.06250003 0.068551615 0.19947402 0.1833481 0.27071333 0.25686207 0.16192786
0.096536644 -0.27564663 -0.12736015 -0.04443965 0.07750449 0.041505393 0.23086792 0.035116486
0.06212284 0.10332585 -0.016352426 0.0853068 0.08763796 0.08762191 0.22895259 0.17591976
-0.15162416 -0.0115188705 -0.075012244 -0.23203556 -0.178336 -0.1632672 -0.09987336 -0.15808252
-0.05433693 -0.081874534 -0.07418009 -0.05948739 0.15600562 0.13199219 0.093378685 0.15482676

encoder.features.3.bias f4 [64]
00000000: ac76 8ebd 4a29 08bb 0e11 26b9 4a98 3a3d
00000010: 60df cf3d 655b 703d 22a9 bcbd a80a edbd
00000020: a186 fdba 1441 c5bc ef54 ddbd 59d2 f63c
00000030: 2ecf 963c d46e a43d 2bca 2d3d e67b c5bc
00000040: 0ec1 a73d 8e11 fa3c 316a 823c 4c83 013d
00000050: ea34 4cba 8945 d03d 3555 1d3b 9c24 723c
00000060: 5e35 9b3d 5ac0 403d a2ab 75bd 3506 d9bd
00000070: 92f4 983d a8f6 e5bb ebe8 063e 64fc 9abd
00000080: 2046 46be 2766 e13d d5b1 ca3d 808f 0a3c
00000090: 1954 aa3d e36a 39be fa7e 2fbd 1b05 edbd
000000a0: 8301 de3d 54f2 55bc bd84 abbd 8392 e0bb
000000b0: a9eb 30be 279c b23c 25e6 39bd 7d87 c0bd
000000c0: 5bc7 0cbd 649f d6bc b768 4f3d 57f8 27bb
000000d0: 1c79 c639 26be eabd b17e 67bd e2ad 443e
000000e0: 64a1 19bd 9003 2d3d 4b70 823d 3806 e5bd
000000f0: 711f 56bd a4ed c83d 4759 403d 813a c1bc
-0.069562286 -0.0020776563 -0.00015837347 0.04555539 0.10150027 0.05868091 -0.09211947 -0.11574298
-0.0019342491 -0.024078883 -0.108072154 0.030129598 0.018409338 0.08028951 0.04242913 -0.024106931
0.08191119 0.030525949 0.015919777 0.031619355 -0.0007789867 0.10169513 0.0024007086 0.014779236
0.07578538 0.04705844 -0.059978135 -0.10596887 0.07468523 -0.007017929 0.13174789 -0.07567671
-0.19362688 0.11005812 0.098972 0.008457065 0.083168216 -0.1810718 -0.042845704 -0.115732394
0.10840132 -0.013058264 -0.08374927 -0.006853403 -0.17277397 0.021802975 -0.0453855 -0.09400842
-0.034369808 -0.02619905 0.050636973 -0.00256302 0.00037855736 -0.11462049 -0.056517307 0.19206956
-0.03750743 0.042239726 0.063690744 -0.11182827 -0.05227608 0.09810951 0.04696014 -0.023587467

encoder.features.4.weight f4 [64]
00000000: bb02 5b3f 20bb 493f ae84 443f 5ec2 843f
00000010: 04b3 823f 483a 733f 2c72 833f 936e 7c3f
00000020: 3eee 813f 2509 873f 0632 7d3f b048 8b3f
00000030: 03d5 823f 16b2 623f 45b6 6d3f dbe3 793f
00000040: a417 763f 0be1 503f f247 8a3f c473 6f3f
00000050: d865 6f3f f0c0 6d3f f9c8 543f cbd9 873f
00000060: 9d68 873f 8800 663f 3c90 5a3f 976f 803f
00000070: ee44 663f aae3 513f bff5 693f d0f6 933f
00000080: c48f 893f ff1a 833f 6352 8f3f 6527 8a3f
00000090: 2e51 683f 25e3 663f 2871 3e3f afee 8a3f
000000a0: 394c 7b3f 1b58 653f aa88 723f fa6a 683f
000000b0: ba7d 833f 0ba1 5b3f bb1c 573f 7e1a 6c3f
000000c0: bf91 603f b6b1 683f f92e 663f afb7 7e3f
000000d0: 366b 873f 96ff 843f 1de1 513f 37b6 6b3f
000000e0: 07c6 493f 7277 8a3f 327d 6e3f 2ef9 713f
000000f0: 9325 883f cc11 773f d7eb 7f3f 7a67 7d3f
0.8555104 0.78801155 0.76764953 1.0371816 1.0210881 0.95010805 1.0269217 0.9860622
1.0150831 1.0549666 0.98904455 1.0881557 1.0221256 0.8855299 0.92856246 0.97613305
0.9612982 0.8159339 1.0803206 0.9353602 0.93514776 0.92872524 0.8311916 1.061334
1.05788 0.8984456 0.85376334 1.0034055 0.8994893 0.8198801 0.91390604 1.1559696
1.0746999 1.0242614 1.1197017 1.0793272 0.9074887 0.90190345 0.7439141 1.085409
0.9816318 0.89587563 0.9473978 0.90788233 1.0272744 0.8579261 0.84028214 0.92227924
0.8772239 0.90896165 0.89915425 0.9949903 1.0579593 1.0390499 0.8198412 0.9207491
0.7881779 1.0817702 0.9315978 0.94520843 1.0636467 0.9651153 0.9996924 0.9898602

encoder.features.4.bias f4 [64]
00000000: 7ca9 febe 68af b6be 180b bbbe b3f1 49be
00000010: 0d04 8abe 2c6f fdbe 1e45 aebe 3da9 46be
00000020: 673c 91be 2175 a9be 4b41 89be 4bc4 66be
00000030: 00c1 febd 9880 afbe 23c5 cdbe ce7d 5a3d
00000040: 2795 c3be 1b80 95bd 8703 29be 09e9 ecbd
00000050: 7387 a4be 9e42 a2be cf73 a1be 19e8 9cbe
00000060: 417a 05be a248 bebe 1e69 dbbe bc8f febc
00000070: 9cf8 dfbe 58f0 70be 1140 a4be 6d90 82be
00000080: 0cce b8bd 17a6 56be 0dd7 48be fe32 33bd
00000090: 216d 07bf 706d d1be f56b 9abe 4766 6cbe
000000a0: 4f96 90be 6e5b dcbe 1e2b 00bf d4b1 17be
000000b0: 25d0 d8be 5eb2 17bf 6bac 94be c8c6 f8be
000000c0: f9b9 e5be 6618 5ebe ea18 adbe e544 ecba
000000d0: 7bbb b3be 2693 86be 3f38 03bf 6d22 9cbe
000000e0: 1b17 c0be cb87 b7bd 2892 c2be c35a 41be
000000f0: b9c2 32be 2f7e a4be bb81 4abe 67c7 38be
-0.4973868 -0.356807 -0.365319 -0.19721107 -0.26956216 -0.4949888 -0.34037107 -0.19400497
-0.28366396 -0.33097175 -0.26807627 -0.22535817 -0.124391556 -0.34277797 -0.40189466 0.053342633
-0.38199732 -0.07299825 -0.16505252 -0.115678854 -0.3213459 -0.3169145 -0.31533667 -0.30645826
-0.13034917 -0.3716479 -0.42853636 -0.031074397 -0.4374436 -0.23529184 -0.3208013 -0.25500813
-0.09023675 -0.20961796 -0.19613285 -0.0437498 -0.5290089 -0.40903807 -0.3016049 -0.2308589
-0.28239676 -0.43038505 -0.5006579 -0.1481393 -0.42346302 -0.5925654 -0.29037794 -0.48589158
-0.44868448 -0.21688995 -0.3380807 -0.0018025903 -0.35103974 -0.2628414 -0.512577 -0.30495015
-0.37517628 -0.08961447 -0.38002133 -0.18882279 -0.17457093 -0.3212752 -0.19776051 -0.18044816

encoder.features.4.running_mean f4 [64]
00000000: b6d8 c53f 05ce 36bf 3cbb a23f 9408 cdc0
00000010: 4f71 99c0 0699 8140 3743 5ac0 ca56 51bf
00000020: 2e5d 89c0 d4f9 7bc0 5a5a 383f 264b 64c0
00000030: f23b b4c0 5cc9 34bf 7780 8d40 e263 26c0
00000040: e7e6 3840 f7e1 6bbf ee1d babf cee1 c8bf
00000050: 07fb 3f3f dbb0 65c0 4114 b6bf af9e 33c0
00000060: e8f3 8bc0 9399 5240 c666 5540 6e27 61c0
00000070: b429 9640 e27b e3bc 7dec 66c0 eb5d 35c0
00000080: 47d1 84c0 7663 28c0 8c90 66c0 e2e5 8dc0
00000090: b254 2540 afb0 2240 fc8e 31bf 03d2 e0bf
000000a0: f72d efbf 446f 7740 b0aa 1cc0 3eb0 17c0
000000b0: accf a7be 2c2e 9c40 3f45 0ec0 4b81 1e3e
000000c0: b884 f93f e95a febf beeb 98c0 3165 25c0
000000d0: 8aa1 6540 41e4 1fc0 344b 4440 36e5 2940
000000e0: 6e3c bb3f 1006 b7c0 dc14 4e40 6199 53bf
000000f0: ad6c c2c0 2055 b53f 0bf4 d9bf 982e 05c0
1.545676 -0.7140811 1.2713389 -6.407297 -4.7950816 4.0499296 -3.4103525 -0.81773055
-4.2926245 -3.9371233 0.72012866 -3.5670867 -5.6323175 -0.7061975 4.4219317 -2.5998464
2.8890932 -0.9214167 -1.4540384 -1.569391 0.7499241 -3.5889194 -1.4224931 -2.8065603
-4.3735237 3.2906234 3.3343978 -3.5180316 4.6925907 -0.027769033 -3.608184 -2.8338573
-4.1505466 -2.6310706 -3.6025724 -4.434312 2.5832944 2.542034 -0.693588 -1.756409
-1.8685902 3.866166 -2.447918 -2.370132 -0.3277563 4.880636 -2.2229764 0.15479009
1.9493628 -1.9871494 -4.778777 -2.5843012 3.5879846 -2.4983065 3.06709 2.654615
1.4627817 -5.71949 3.2200232 -0.8265591 -6.075766 1.4166603 -1.7027601 -2.0809689

encoder.features.4.running_var f4 [64]
00000000: 1500 ea40 0639 e940 966e 6141 9e08 3841
00000010: 3b3c 4041 fe17 f340 7c99 0c41 3ca1 4e41
00000020: 748e 2341 640b d540 d9fc e240 d83a e340
00000030: 1a88 7541 d47b f540 65f1 2841 e2d0 0f41
00000040: d9d6 1c41 5d0c 9841 b287 0941 41c3 8e41
00000050: 0e6c de40 63b0 2741 99ae 2041 ec55 ad40
00000060: 0cfb e541 4187 5941 60ec db40 473a 3c41
00000070: a7e6 0741 11e2 8841 cf04 1641 6758 ba40
00000080: 7daf c340 434e 6441 2462 2241 c423 4441
00000090: 353f ae40 40d2 d440 a311 5841 7739 5a40
000000a0: 06a0 2441 09ad cf40 6f8a d140 c65d b441
000000b0: d58f 0341 493f f340 f2d1 9641 a80b fc40
000000c0: b207 1d41 7267 3c41 1d3b 4e41 9e76 e440
000000d0: 7ffb 1141 b763 c540 3036 0841 8dc5 ba40
000000e0: 928a 2341 4663 6541 11ad 0041 1588 6041
000000f0: 4b18 7141 8360 e640 2c46 2641 62ac 4e41
7.31251 7.288211 14.0894985 11.502104 12.014705 7.5966787 8.787472 12.914364
10.222279 6.6576405 7.093365 7.100933 15.345728 7.6713657 10.558934 8.988497
9.802453 19.006037 8.595629 17.845339 6.9506903 10.480563 10.042626 5.4167385
28.747581 13.595521 6.8726044 11.764228 8.493812 17.110384 9.376174 5.8232913
6.115172 14.269107 10.14896 12.258732 5.4452157 6.6506653 13.504306 3.4097574
10.289068 6.4898725 6.5481486 22.545788 8.222615 7.6014752 18.852512 7.876423
9.814379 11.775255 12.889432 7.1394796 9.1239 6.168422 8.513229 5.836615
10.221331 14.336737 8.042253 14.033223 15.068431 7.199281 10.392132 12.917086

encoder.features.6.weight f4 [128, 64, 3, 3]
00000000: 8e3a 5ebe c5ac e8bd 0ceb ffbd c59c 74be
00000010: d9d8 54be 0694 18be 0e73 84be d8ca 35be
00000020: 5128 38be f1a8 1b3e 23c6 193e d5ca 4b3e
00000030: 29b5 233e 7c36 183e 3219 5b3e ff5d 313e
00000040: f4ec 4a3e 2bf4 453e 4427 7cbd 5b64 3dbd
00000050: 9ecc 2bbc 42a4 97bd ab45 fbbc ac64 afbc
00000060: ab68 a9bd 4622 16bb 4927 8abd 1435 5ebe
00000070: 70c9 79be 24e7 5abe dee3 60be fa2e 43be
00000080: eb5a 4dbe d167 04be 65df 1fbe bc15 54be
00000090: 87ed b7bb 4a73 4c3c 136d 823c dc51 983a
000000a0: fb55 89bd 6bef 77bc d1b5 823d b209 523d
000000b0: 5592 85bb aebc 23be 4a45 9fbd 3d09 1fbe
000000c0: d88c 1abe d067 92bd 37db f8bd 0a8b 05be
000000d0: faa4 e9bd 39b2 13be 6dc2 0c3c 0320 193d
000000e0: b0d1 973c 78d6 bc3b ce35 94bc e24e 9bbc
000000f0: a3cd 85bc ec4f c5bc f0f5 b73b 469c cebc
00000100: 8a1e d0ba 1a93 ebbc afea c6bc 5cfb 0bbd
00000110: 2387 c8bc 1e28 273d 71ab b53c 4cce 453c
00000120: 3761 5bbd 68de 3dbd 80f6 f8bc 12b4 a7bc
00000130: fbb0 90bd d849 4dbc 41b7 813c a5a3 2bbd
00000140: 6296 903c 046d 013d 9105 a83c 91ad 79bc
00000150: e5b9 2d3d 4f9e bdbc 4638 74bc 9f3f b73d
00000160: ba8d 4e3d ad47 a83d ad4a 27bd 32db 4cbd
00000170: 14c6 38bd 5975 2bbd 6eac 5fbd 7b60 b93c
00000180: 2f2a 81bc f3c3 dfbb 0464 63bd 8d00 523e
00000190: db34 683e 9173 503e afc6 433e 104e 273e
000001a0: 12d9 0e3e 6c1b 6d3e 1c76 7b3e a2e5 553e
000001b0: 83dd 483d ecef 8e3d 69dd ad3c e9c4 b83c
000001c0: 10f0 583d d6f4 8e3c c6a8 803d 9e8e 823c
000001d0: 8488 4a3d 55e0 81bd 2732 e13b 2efb 25bd
000001e0: eecc 8bbd acd6 21bd 0ff6 313a a70c edbc
000001f0: ba3d 42bd f4a3 6dbc 8e02 babd eb5c a2bd
00000200: 4c10 68bd 665a e0bc d09c 7abc a365 05bc
00000210: 26c2 79bc faf8 0cbd 481f 12bc bdc9 483d
00000220: 0937 183d 2c34 c03d 7a7c 593d 7cbc 19bd
00000230: 7000 05bc bf8b 973c 18ae 023d 057f 9e3b
00000240: 5f8f 6bbe 31d0 58be 7734 72be 6250 70be
00000250: bb21 5fbe 8c17 43be be27 73be 2c50 80be
00000260: 11ce 5abe e184 cf3d 7461 0e3e 1a9e d53d
00000270: 0400 c33d 0b06 f43d daf9 9c3d 8761 2c3e
00000280: 18e2 1d3e 1575 253e daa8 b53b 3c0c 9b3c
00000290: 3ee5 5abd 314a 60bd 0368 1fbc 7b76 1fbd
000002a0: b2da ffbb 284e 003d de52 a8bb 1c95 133e
000002b0: 7de2 de3d 206d 123e 7c5a 0c3e 00bf 273e
000002c0: 77df 4e3e 2f2d 263e bfd6 413e c054 403e
000002d0: 8866 d2ba 8224 8ebb 9530 4dbd 0ad9 1cbd
000002e0: db28 9fbc 6e75 1bbd 4fcf a3bd 5539 74bd
000002f0: 657f 08bc 8cfb 86bd 68d4 86bd 700b 21bd
00000300: ccca d4bc abc1 21bd 90a2 12bd f9df 6cbc
00000310: 56ad 46bd 68ef 94bd 9e75 6cbd 83ea afbd
00000320: e264 66bd 811d 9ebd 450e 92bd 6bbf 09bd
00000330: 1105 1bbd ab77 683c 03db 30bd f93d 01be
00000340: d112 d1bd c491 dfbd da40 2bbe c8ca 0abe
00000350: 924a 12be 1f16 2ebe ff26 61be 6182 50be
00000360: 2a66 1cbe e512 f4bd 46d0 3cbe 6076 37be
00000370: 27bd 40be df80 19be bb4d 3dbe 5b2c 54be
00000380: 5763 2cbe 1a8c 4abd 49af 893a 1c80 b4bc
00000390: 70d1 2f3d 8e6f a7bb 6e2d fdbc 4aac 46bc
000003a0: 8b4e 823c c75d 29bb 9024 1cbc 696b 68bd
000003b0: ed12 53bd d6e5 0dbd 836d 16bd dc43 123c
000003c0: 6d24 39bd 9d95 47bc b3f9 1e3c 2959 b5ba
000003d0: e3f9 2dbd 4af9 1bbd a15e e8bc d89e bebd
000003e0: f294 e0bc 6013 cf3b bc70 89bd 4547 07bd
000003f0: 948d ecbd 8495 d5bd d2df dbbd 3076 bdbd
-0.21702024 -0.11361078 -0.124960035 -0.23887928 -0.20785846 -0.14900216 -0.2586903 -0.1775316
-0.1798413 0.15201165 0.1501699 0.19901593 0.15987076 0.14864534 0.2139633 0.17321013
0.19816953 0.19331424 -0.061560884 -0.046238285 -0.010485796 -0.074043766 -0.030672869 -0.021410309
-0.08271917 -0.0022908612 -0.06745774 -0.21699935 -0.24393249 -0.21377236 -0.21961924 -0.19060889
-0.20054214 -0.12930228 -0.15612562 -0.20711416 -0.0056130323 0.012478659 0.015921151 0.0011621076
-0.067058526 -0.015132765 0.06382335 0.051278777 -0.004076282 -0.15989944 -0.07776888 -0.15530868
-0.1509279 -0.07148707 -0.12151187 -0.1304132 -0.1140842 -0.14423455 0.008591277 0.037384044
0.018532604 0.0057628714 -0.018092062 -0.018958513 -0.016333407 -0.024085961 0.005614035 -0.025221001
-0.0015878242 -0.028756667 -0.024281828 -0.03417526 -0.0244785 0.040809743 0.022176476 0.012073111
-0.05355951 -0.04635468 -0.030390978 -0.020471606 -0.07065006 -0.012529813 0.015834453 -0.04190411
0.017649833 0.031598106 0.020510467 -0.015239135 0.04241361 -0.023146776 -0.014905995 0.08947682
0.05042813 0.08216796 -0.0408427 -0.05001373 -0.045110777 -0.04185996 -0.0546078 0.022629013
-0.015767185 -0.006828779 -0.055515304 0.20508023 0.22676413 0.20356585 0.1911876 0.16338372
0.13949993 0.23154992 0.24556774 0.20888379 0.049039375 0.06979355 0.02122374 0.022554832
0.052963316 0.017450731 0.06282191 0.015937146 0.049446598 -0.06341616 0.0068724337 -0.040522747
-0.068261966 -0.039511368 0.000678868 -0.028936697 -0.04742215 -0.0145044215 -0.090825185 -0.07927879
-0.056656167 -0.027386855 -0.015296176 -0.008141908 -0.0152440425 -0.03441713 -0.008918591 0.049020518
0.03716186 0.09384951 0.053097226 -0.03753327 -0.00811778 0.018499253 0.03190431 0.0048369193
-0.2300391 -0.21173169 -0.23652826 -0.23468164 -0.21790211 -0.19051951 -0.23745629 -0.25061166
-0.2136767 0.101327665 0.13904363 0.10430546 0.09521487 0.11915215 0.07664843 0.16834079
0.15418279 0.16157945 0.0055438103 0.018926732 -0.05344128 -0.054758254 -0.009729388 -0.03893135
-0.007808053 0.031324536 -0.0051368317 0.1441235 0.10883043 0.1429944 0.13706392 0.16381454
0.20202433 0.16228174 0.18929575 0.1878233 -0.0016052285 -0.004337848 -0.05009516 -0.038292922
-0.019428661 -0.037953787 -0.07998525 -0.05962499 -0.0083311545 -0.065909475 -0.06583482 -0.03931755
-0.025975607 -0.039491337 -0.035799563 -0.014457696 -0.04850515 -0.072722256 -0.057729356 -0.085896514
-0.056248553 -0.07720471 -0.07131628 -0.033629816 -0.03784663 0.014188687 -0.043177616 -0.12621297
-0.10208667 -0.109164745 -0.16723958 -0.13553917 -0.14286259 -0.17000626 -0.21987532 -0.20362236
-0.15273347 -0.11917666 -0.18438825 -0.1791625 -0.18822156 -0.14990567 -0.18486683 -0.20720045
-0.1683477 -0.049450018 0.001050451 -0.022033744 0.042924345 -0.005109734 -0.030905452 -0.012126038
0.015906593 -0.002584325 -0.009530202 -0.05674306 -0.05153172 -0.034643017 -0.036725532 0.008927312
-0.045200754 -0.012181667 0.009703088 -0.0013835776 -0.04247464 -0.038079537 -0.028365435 -0.09307641
-0.027414773 0.0063194484 -0.067109555 -0.033026952 -0.115504414 -0.104289085 -0.1073605 -0.09251058

encoder.features.6.bias f4 [128]
00000000: 93af 6bbd 124f 17bd ddf1 cf3d b6ad cbbc
00000010: fa42 30bd 0b3c 6b3c 9256 26bd 0403 e3bc
00000020: 4b2c 62bc c94c 563c 4843 09ba 2d5c 87bc
00000030: 4362 a03c 14e5 823d e09b 8bbd b53c 08bd
00000040: 1a18 a6bc d250 cbbc f5c7 f63c c1e2 95bc
00000050: e5ef 17bc d86a bebc 4968 37bb 5a35 0cbd
00000060: 661f 47ba b77c a63b 1bd2 25bc 1538 383d
00000070: c73a c4bc c081 31bc 7da5 09bd 102b 69bc
00000080: 6ed8 283d 64f9 01bd 6bac 52bc e1e2 303d
00000090: b062 243b 003c 1b3d a371 91bd 9519 333d
000000a0: c123 903c 8444 4ebc 97f5 17bd 5020 20bd
000000b0: 1ef4 70bd dc65 603c 0a08 f53b f830 aabc
000000c0: 2cf8 d7bb 4018 76bc 004a c53a 7d9e 09bd
000000d0: 102d 8fbb 31cc 95bd 239a 123d 0226 66bd
000000e0: b445 9cbc e8e5 a93c 2036 e13b 00ed 73bd
000000f0: c31f f53c 3bd2 42bc aa4a 7f3d 24b9 6bbd
00000100: b699 66bc c648 2ebb 05fb 113d 273c bc39
00000110: 55bd f13c 6dd5 8c3c 8375 613d 7b9e a3bc
00000120: 9c2e 46bb 4185 f13c eeb3 dabc e9d1 83bc
00000130: 0bc3 713c 34d9 78bd 01e3 1ebd 431f 2c3d
00000140: a48e 153c 15f1 87bc c3a6 253b beb9 e2bb
00000150: 6c2c 27bb d074 993c c26d 68bd a72a e73c
00000160: f7aa 663d 56a6 a63d 41e6 783c c0a3 a23c
00000170: b8e7 0f3d 8d3a 433d 3f3e fc3c 5f13 d7bc
00000180: 9ba3 963d 5be8 ec3c e2ca 0abc f9aa 053d
00000190: 95bf a5bc d430 8b3d a549 81bd 86f4 85bc
000001a0: 3359 253b 6647 8dbd 6915 54ba 949d d43b
000001b0: 346b c5bc 6ffe f1bc 2020 4f3d 687f 8c3a
000001c0: 349b 70bc 3ce8 1e3b d107 6c3d 482c 0a3d
000001d0: 65ff 83bc 33ec eebc a5de 933c 1e12 4a3d
000001e0: 20e8 8dbd 5e77 9b3a 3f5d 0abd 1a5e 63bd
000001f0: 8713 2abc 81ac c83c d169 793d 7ea1 34bc
-0.057540487 -0.03694064 0.10153554 -0.024863105 -0.043032624 0.014357577 -0.040609904 -0.027711399
-0.013804506 0.01307983 -0.0005236161 -0.016523445 0.019578105 0.063913494 -0.0681684 -0.03326102
-0.020275164 -0.024818812 0.030124644 -0.018296601 -0.009273504 -0.023244306 -0.0027985743 -0.034230568
-0.0007595926 0.005080785 -0.010120894 0.04497536 -0.023953808 -0.0108341575 -0.033605088 -0.014231458
0.04122203 -0.031731978 -0.01285849 0.04318512 0.0025083236 0.037899017 -0.071017526 0.04372557
0.017595174 -0.012589578 -0.037099447 -0.039093316 -0.05882656 0.01369616 0.007477765 -0.020775303
-0.0065908637 -0.01502043 0.0015051961 -0.03359841 -0.0043693855 -0.07314337 0.035791527 -0.05618859
-0.019076206 0.02073951 0.0068729073 -0.059552193 0.029922372 -0.011890943 0.062327065 -0.05754961
-0.0140747335 -0.002659367 0.03563978 0.0003590297 0.029509226 0.017191613 0.05504371 -0.01997303
-0.0030240184 0.029482486 -0.026697125 -0.016091304 0.0147559745 -0.060754016 -0.038790707 0.042022
0.009128246 -0.016594449 0.00252764 -0.006919115 -0.0025508655 0.018732458 -0.0567453 0.02821858
0.05631539 0.08137195 0.015191616 0.019853473 0.035133094 0.04766326 0.0307914 -0.026254354
0.07355424 0.02891939 -0.008471223 0.032633755 -0.020232955 0.067964226 -0.06312875 -0.01635195
0.0025230169 -0.06898384 -0.00080903486 0.0064885113 -0.02409897 -0.029540269 0.050567746 0.0010719122
-0.014685441 0.002424731 0.05762464 0.033733636 -0.016112993 -0.029165363 0.018050501 0.049333684
-0.0692904 0.0011861136 -0.033780333 -0.055509664 -0.010380632 0.024496319 0.06089193 -0.011024831

encoder.features.7.weight f4 [128]
00000000: 82c6 693f e0fd 883f c3d5 7e3f a841 6f3f
00000010: a71e 8f3f f112 843f 3410 643f 5baa 713f
00000020: 4da0 7c3f 2cf5 713f 4ad5 763f 8d5d 7e3f
00000030: 8bc0 7a3f f0a3 7e3f 5e45 783f 6ffd 783f
00000040: 99e3 7c3f 9cdd 833f 23f2 673f e353 703f
00000050: 854b 913f fbe2 833f 17f1 573f 94cf 773f
00000060: 16ae 883f c449 783f cbf1 793f d0b5 6a3f
00000070: b6b2 803f e10c 783f 5800 723f 3b4f 823f
00000080: 936e 943f 0094 843f 5805 743f 3095 7d3f
00000090: 845d 663f bec5 703f bba1 733f 51a6 663f
000000a0: bcf1 8b3f 67a0 8c3f 5caf 7f3f 818a 893f
000000b0: ae43 693f 45a6 6d3f fb84 6c3f 4f0d 903f
000000c0: 501c 683f 180f 803f b046 6e3f 34a3 633f
000000d0: ce1a 963f dc4c 523f 7ebb 7c3f 8d84 743f
000000e0: 69fc 773f 8a0a 6c3f 8792 873f 90ab 793f
000000f0: 868e 703f 3880 683f e742 773f 7fb4 743f
00000100: 28d9 5e3f 6915 823f 9a32 813f 5809 873f
00000110: 1da0 693f 0640 6d3f 41e6 683f 25eb 623f
00000120: a82c 783f 7d36 6d3f 132b 843f c5ce 843f
00000130: 732e 683f 9b09 7f3f 151c 7c3f 3ef6 783f
00000140: 052a 753f ec29 6f3f 9a82 6b3f e220 633f
00000150: 4ca0 883f b5d3 6b3f 47d3 873f a59b 813f
00000160: 1a0e 7f3f f6f3 693f 1c04 893f 18ab 863f
00000170: e853 613f 53e8 7d3f f335 7a3f 4744 7c3f
00000180: a762 623f 0eaa 7c3f 6608 743f ce4e 883f
00000190: b6c5 853f 71c0 5d3f 3186 793f 2417 863f
000001a0: 50b1 5a3f d2d1 8c3f f6cc 733f d49c 5d3f
000001b0: 6b62 843f 25fa 693f 6c98 633f 2d33 783f
000001c0: 9122 823f 8fa2 833f a4cf 733f da9f 783f
000001d0: 18df 623f d6a7 723f 33f6 7c3f b2cd 5e3f
000001e0: c69e 823f 93d8 803f 5210 8c3f c673 653f
000001f0: 99b8 6d3f f241 583f 7889 8d3f cf98 653f
0.91318524 1.0702477 0.99544924 0.9345956 1.1181229 1.031828 0.89087224 0.94400567
0.986821 0.9451473 0.96419203 0.993615 0.9795005 0.994689 0.96980846 0.9726171
0.98784786 1.0302005 0.90603846 0.93878 1.1351172 1.0303644 0.8435225 0.96801114
1.0678127 0.9698756 0.9763457 0.91683674 1.0054538 0.9689465 0.94531775 1.0180429
1.1596245 1.0357666 0.95320654 0.9905577 0.89986444 0.9405173 0.95168656 0.9009753
1.0933146 1.0986451 0.9987695 1.0745393 0.91118896 0.9283183 0.9239041 1.1254061
0.906682 1.0004606 0.9307661 0.88920903 1.172693 0.8214853 0.9872359 0.95514756
0.9686952 0.9220358 1.0591592 0.9752741 0.93967474 0.90820646 0.9658646 0.95587915
0.87050104 1.0162784 1.0093567 1.0549726 0.9125994 0.92675817 0.9097634 0.8864005
0.9694314 0.9266127 1.0325645 1.0375601 0.90695876 0.9962403 0.9848035 0.97250736
0.9576724 0.9342334 0.9199616 0.8872205 1.0673919 0.92119914 1.0611352 1.0125624
0.9963089 0.9138788 1.0704379 1.0520964 0.88018656 0.99182624 0.9773857 0.9854168
0.8843178 0.9869698 0.95325315 1.0649049 1.0450962 0.8662177 0.97470385 1.0475812
0.8542681 1.1001532 0.9523462 0.86567426 1.0342535 0.91397315 0.8890445 0.9695309
1.0166799 1.0283984 0.9523871 0.97118914 0.88621664 0.9478735 0.9881317 0.87032616
1.0204704 1.0066093 1.094248 0.8962978 0.928598 0.84475625 1.1057577 0.8968629

encoder.features.7.bias f4 [128]
00000000: 6e1e 69be 9792 9abe e1a8 6fbe 62ec 50be
00000010: c231 a8be a446 80be 9d74 81be b7ef 52be
00000020: f58f 0dbf 23ac 84be 4ba8 c0be 2d7a 76be
00000030: d94b 6fbe a915 92be c4df 69be dfd7 40be
00000040: 0a7d 78be ada1 7fbe b2ab c0be 2a3e afbe
00000050: d9b6 94be 2480 97be a78e b3be fdae 54be
00000060: 613a 7bbe 9c9a 6cbe b516 8bbe d09b 67be
00000070: 0573 c3be 3785 5fbe 0a64 c3be 2c64 44be
00000080: de1a 10be 30e2 55be aca2 a2be 8ff0 6bbe
00000090: afc5 9fbe b31c 95be 170c c7be 3999 adbe
000000a0: 851c 9cbe 3311 8cbe d979 a0be 8c98 99be
000000b0: 224a bcbe 5239 c7be 9abc 82be 414f d6be
000000c0: 9ac0 89be 1590 96be 0395 c3be 31c0 8ebe
000000d0: 9db9 c7be e817 c1be d866 99be a80b 68be
000000e0: 5fec d4be 526f 67be 49f7 b7be d789 a8be
000000f0: f63a 90be 27ad 95be 9877 76be cd51 9abe
00000100: 5e8c 85be aa13 a3be 2a91 81be b075 41be
00000110: c47c 7ebe c760 72be 781d 96be 6b3f bebe
00000120: 0fbd a0be 6d13 92be 3740 50be 7feb 94be
00000130: c92d 98be 88e1 cbbe e38d 90be 2d12 dbbe
00000140: 205b 6cbe b043 babe 374f d5be 492d 5fbe
00000150: 52d8 78be 332e 6cbe 359f cfbe 432d 56be
00000160: 7366 98be 20c8 8ebe 4829 53be 55d9 68be
00000170: af2c c0be a51c abbe 6a28 b1be 19aa a2be
00000180: b28f a1be 772f c2be b42d 64be ff27 dabe
00000190: 505f 7ebe 22f2 a7be 7225 a0be c5ab 79be
000001a0: 90b0 80be f0a0 59be bbff 29be 25cc 87be
000001b0: 634b 9bbe 8bae 74be edfb bdbe 5ae8 74be
000001c0: 5b0b 59be 5f41 82be e2e4 b3be f4d1 a1be
000001d0: 8e93 48be 766b e6be b9f1 97be 16d7 b3be
000001e0: 9c11 b3be c366 a3be 31c0 c1be cd1d c2be
000001f0: 088a 03bf cb6a aabe 1cdd bdbe 5514 bebe
-0.22765514 -0.30189964 -0.23404266 -0.20402673 -0.32850462 -0.25053895 -0.2528428 -0.20599256
-0.55297786 -0.2591258 -0.37628397 -0.24070044 -0.23368777 -0.2853215 -0.22839266 -0.18832348
-0.24266449 -0.24964018 -0.37630993 -0.34227115 -0.29045752 -0.2958995 -0.35069773 -0.20769878
-0.24533989 -0.23105854 -0.27165762 -0.22618032 -0.3817369 -0.21828161 -0.3816226 -0.19178838
-0.14072749 -0.20887065 -0.31764734 -0.23040985 -0.31205508 -0.29123458 -0.3887641 -0.33905962
-0.3049051 -0.27356872 -0.31342962 -0.29999197 -0.3677531 -0.3891092 -0.25534517 -0.4185734
-0.26904756 -0.294068 -0.38199624 -0.27881005 -0.390088 -0.37713552 -0.29961276 -0.22660697
-0.41586587 -0.22601059 -0.3593085 -0.32917663 -0.28169984 -0.29233667 -0.24069059 -0.30140534
-0.26083654 -0.3185094 -0.25306064 -0.1889255 -0.24852282 -0.2366973 -0.29319358 -0.3715776
-0.3139424 -0.28530446 -0.20336996 -0.2908592 -0.2972243 -0.39820504 -0.2823325 -0.42787305
-0.23081636 -0.36379766 -0.41662 -0.21794619 -0.2430127 -0.23064499 -0.40551153 -0.20915703
-0.29765663 -0.27887058 -0.20621216 -0.22739156 -0.3753409 -0.33420292 -0.34601146 -0.317704
-0.31554943 -0.37926838 -0.2228306 -0.4260864 -0.24841046 -0.3280192 -0.31278569 -0.24381931
-0.25134706 -0.21252799 -0.1660146 -0.26522937 -0.30330953 -0.23894708 -0.37106267 -0.2391676
-0.21195738 -0.254405 -0.3513556 -0.31605494 -0.19587538 -0.4500386 -0.29676607 -0.35125035
-0.34974372 -0.31914338 -0.37841943 -0.3791336 -0.51382494 -0.33284602 -0.37082756 -0.37124887

encoder.features.7.running_mean f4 [128]
00000000: 28fb d3bf f39b 92c0 b1a5 78c0 7cfd f0c0
00000010: a0e3 e53e b88d 7ebd f093 d2c0 e3d0 aac0
00000020: 1ede 9f40 5459 80c0 ccdf 8740 5e29 74bf
00000030: d420 4cc0 a332 4f3f 90d2 3bc0 e266 fac0
00000040: 7829 bd3f 6523 86bf 47b0 9cc0 848f 46c0
00000050: 1f3c 0ac0 f64f 1b40 f14b e43e f1eb 36c0
00000060: 7bf2 ac3e 9d98 b9c0 77dc 5cc0 5727 dac0
00000070: 646f 8240 567e 31c0 5442 5640 a491 ddbf
00000080: 2ee8 01c0 3a17 30bd b4db 583f 6b14 2bc0
00000090: 9cb7 6c3e ba96 6ebf 1d58 23c0 907e 31c0
000000a0: 7c2a 4740 d209 4bbf 66c4 36c0 2b55 9a3f
000000b0: 742d 6ac0 882a 0140 7c7a c2c0 5662 5940
000000c0: 7ef7 b840 2554 f2c0 3a74 7b40 a92a 433d
000000d0: d5ab 813f 8d01 fa3f cb50 9ec0 ac4b c5c0
000000e0: 4f9d 253f 4572 26c0 2ba8 61bf 7e3b 02c0
000000f0: 7bae 3540 cc6f a4c0 50cb 82c0 af6d 8ebe
00000100: 24b2 e2bf 2ebf cfbf a3f5 25be ba29 70c0
00000110: 4786 93c0 f2ca 86c0 89af aec0 68e4 0ec0
00000120: 5dcf bdc0 3ad7 91c0 b04d 77c0 6533 a6bf
00000130: 2b59 4fc0 2f66 b240 8695 9c3f 0e9b 1041
00000140: 707b 33c0 dc70 3940 dcf8 31bf 7530 1fbf
00000150: 68ec bcc0 9861 9dc0 6427 9840 174b c3bf
00000160: 3702 e83f 0e78 8cc0 51a0 63c0 93a4 f7bf
00000170: ad17 2040 443f c53e 6e3c 0740 5da3 64c0
00000180: 1a6b 433f 4324 6c40 4724 8fc0 f037 0c40
00000190: 02f0 2b40 05e5 373f ddb3 15c0 9d41 87bf
000001a0: 3e5f c0c0 377f 47c0 07a2 dac0 caff 09c1
000001b0: 7b7a 54c0 86fe 58c0 19ce 7040 2300 3e3f
000001c0: 0eea a8c0 ce7c 1dc0 0750 60c0 33d5 07c0
000001d0: c753 efc0 cb1e b140 37be 7fc0 00df d8bf
000001e0: 8ad8 3c40 1183 973f 188d 8fbf f4d1 15c0
000001f0: 256a db40 5ec9 2c3c d2c6 2c3f 1292 c43f
-1.6561022 -4.581537 -3.885113 -7.530943 0.44900227 -0.062146872 -6.580559 -5.337999
4.995864 -4.0109043 4.246069 -0.9537562 -3.1895037 0.8093664 -2.9347267 -7.825059
1.477828 -1.0479552 -4.896518 -3.1025095 -2.1599195 2.4267554 0.4458919 -2.8581507
0.33778748 -5.7998796 -3.450956 -6.817302 4.0760975 -2.773336 3.3477983 -1.7310071
-2.0297961 -0.0429909 0.8471024 -2.6731212 0.23116916 -0.9319874 -2.552253 -2.7733498
3.111968 -0.7931186 -2.8557372 1.2057241 -3.6590242 2.018221 -6.0774517 3.396627
5.7802114 -7.5727715 3.928969 0.047648106 1.0130564 1.9531723 -4.9473624 -6.1654873
0.6469316 -2.6007245 -0.8814723 -2.034881 2.8387744 -5.138647 -4.0873184 -0.27818057
-1.7710614 -1.6230218 -0.16206984 -3.7525468 -4.6101413 -4.2122736 -5.4589276 -2.2326908
-5.931563 -4.557523 -3.8641167 -1.2984434 -3.2398174 5.5749736 1.2233131 9.037855
-2.804409 2.8975134 -0.69520354 -0.62183315 -5.903858 -4.9181633 4.7548084 -1.5257291
1.8125676 -4.389655 -3.55666 -1.9347099 2.501445 0.3852483 2.1130633 -3.572471
0.763353 3.6897132 -4.4731784 2.1909142 2.686524 0.7183383 -2.339103 -1.0566899
-6.0116262 -3.1171396 -6.8322787 -8.6249485 -3.3199756 -3.3905349 3.7625792 0.7421896
-5.278571 -2.4607425 -3.5048845 -2.1223876 -7.4789767 5.535009 -3.9959848 -1.6943054
2.9507165 1.1836873 -1.1214933 -2.3409395 6.856707 0.010546057 0.67490876 1.5357077

encoder.features.7.running_var f4 [128]
00000000: 777f af41 b17a ae41 c2dd 6f41 7135 1e42
00000010: 76ad 6341 6aa1 9a41 f33c 3442 5150 5242
00000020: caba 2741 9a57 5741 26a1 af41 c5ee a241
00000030: 7d39 7841 258b 5741 46e0 f941 4bcb b141
00000040: 4995 aa41 3724 a541 b0a5 b341 79bb 4d41
00000050: f5eb 4a41 73aa 9741 07d4 a741 6ec1 5941
00000060: 613b a541 e713 9041 50a1 7c41 73fa 0c42
00000070: f2b6 3e41 cf2e 8441 6e81 ea41 5a4b ef41
00000080: 2950 3841 26aa 5641 bb1f d641 fa0c 0042
00000090: 3e5d 3e41 bfb0 cd41 e168 7541 90a1 4741
000000a0: d309 9141 f01b 5d41 c66b 9141 cd4b 1241
000000b0: 6bcf b941 5858 5241 e7d4 d041 685e a841
000000c0: e56d a341 f5f6 ef41 a37c 7a41 b9f9 8341
000000d0: e5a6 0c41 d8d7 f741 d14b c041 a030 bf41
000000e0: b140 8941 89a2 8441 e8b3 5341 b9fa 6841
000000f0: 7a9f eb41 03f7 0e42 7f1d d641 4096 4e41
00000100: 79d6 d941 608f 3d41 acf6 8541 5aae aa41
00000110: 6a3c ac41 02ca a741 2f65 af41 168e 7841
00000120: 0b26 0a42 54c4 8841 516d a541 ac16 ac41
00000130: 97f0 c841 4ca2 8341 2550 8141 80c5 b041
00000140: f75c 8541 fd1c a341 182a 8141 caa1 9541
00000150: dc80 d641 36cc 9841 6a7c a041 8538 5341
00000160: 8b41 8d41 3f3b 0342 903d 3741 accb 2a41
00000170: 397e 4741 9d27 3141 1366 f441 5b0d 9041
00000180: 9497 d841 c47e e041 37f2 7e41 982c 8b41
00000190: ac90 6b41 68bb cd41 90cf 5a41 e649 a041
000001a0: 6fc9 0542 1156 4041 ecc1 3b42 68cb 2d42
000001b0: 5544 8241 1401 9141 dd0d b041 3b3c 9041
000001c0: 47a2 8c41 08a3 5b41 ef18 6641 f4bd 2741
000001d0: 607c 2042 12cc 4c41 2255 fc41 29a1 1441
000001e0: fca6 7d41 3472 3f41 1dab a841 b6ad 9341
000001f0: c98c a741 f8eb 5d41 bbb6 1e41 4d37 f641
21.937239 21.809908 14.99164 39.55219 14.229849 19.328815 45.05952 52.578434
10.483103 13.458887 21.953686 20.366587 15.514035 13.471471 31.234509 22.224264
21.322893 20.642683 22.455902 12.85827 12.682607 18.958227 20.978529 13.609724
20.653994 18.009718 15.789383 35.24458 11.919664 16.522856 29.313198 29.911793
11.51957 13.41654 26.765493 32.012672 11.897764 25.711302 15.338105 12.476944
18.129797 13.819321 18.177624 9.143506 23.226278 13.146568 26.103956 21.046097
20.42866 29.995584 15.655429 16.496935 8.790746 30.980392 24.03702 23.898743
17.156588 16.579363 13.231422 14.561212 29.45287 35.741222 26.764402 12.911682
27.229723 11.847504 16.745445 21.335133 21.5295 20.973637 21.924406 15.534689
34.53715 17.095863 20.678377 21.51107 25.117476 16.454247 16.164133 22.096436
16.670393 20.389154 16.145554 18.703999 26.81292 19.099712 20.06075 13.201299
17.657003 32.807858 11.45253 10.674725 12.468316 11.072171 30.54984 18.006521
27.074013 28.061897 15.9341345 17.396774 14.72282 25.716507 13.675674 20.036083
33.446712 12.021012 46.939377 43.44864 16.283365 18.125526 22.00677 18.02941
17.579237 13.727303 14.381087 10.483875 40.12146 12.799822 31.541569 9.289346
15.853268 11.965382 21.083551 18.45982 20.943743 13.87011 9.919612 30.777002
